…
2025-03-02 21:56:26,448 - INFO -   Tomato__Tomato_mosaic_virus: 373 images
2025-03-02 21:56:26,448 - INFO -   Pepper__bell___Bacterial_spot: 997 images
2025-03-02 21:56:26,448 - INFO -   Tomato_Bacterial_spot: 2127 images
2025-03-02 21:56:26,448 - INFO -   Tomato_Late_blight: 1909 images
2025-03-02 21:56:26,448 - INFO -   Pepper__bell___healthy: 1478 images
2025-03-02 21:56:26,448 - INFO -   Potato___healthy: 152 images
2025-03-02 21:56:26,448 - INFO - Creating model: mobilenet_v3_small with 15 classes
2025-03-02 21:56:26,527 - INFO - Model architecture:
MobileNetV3(
  (features): Sequential(
    (0): Conv2dNormActivation(
      (0): Conv2d(3, 16, kernel_size=(3, 3), stride=(2, 2), padding=(1, 1), bias=False)
      (1): BatchNorm2d(16, eps=0.001, momentum=0.01, affine=True, track_running_stats=True)
      (2): Hardswish()
    )
    (1): InvertedResidual(
      (block): Sequential(
        (0): Conv2dNormActivation(
          (0): Conv2d(16, 16, kernel_size=(3, 3), stride=(2, 2), padding=(1, 1), groups=16, bias=False)
          (1): BatchNorm2d(16, eps=0.001, momentum=0.01, affine=True, track_running_stats=True)
          (2): ReLU(inplace=True)
        )
        (1): SqueezeExcitation(
          (avgpool): AdaptiveAvgPool2d(output_size=1)
          (fc1): Conv2d(16, 8, kernel_size=(1, 1), stride=(1, 1))
          (fc2): Conv2d(8, 16, kernel_size=(1, 1), stride=(1, 1))
          (activation): ReLU()
          (scale_activation): Hardsigmoid()
        )
        (2): Conv2dNormActivation(
          (0): Conv2d(16, 16, kernel_size=(1, 1), stride=(1, 1), bias=False)
          (1): BatchNorm2d(16, eps=0.001, momentum=0.01, affine=True, track_running_stats=True)
        )
      )
    )
    (2): InvertedResidual(
      (block): Sequential(
        (0): Conv2dNormActivation(
          (0): Conv2d(16, 72, kernel_size=(1, 1), stride=(1, 1), bias=False)
          (1): BatchNorm2d(72, eps=0.001, momentum=0.01, affine=True, track_running_stats=True)
          (2): ReLU(inplace=True)
        )
        (1): Conv2dNormActivation(
          (0): Conv2d(72, 72, kernel_size=(3, 3), stride=(2, 2), padding=(1, 1), groups=72, bias=False)
          (1): BatchNorm2d(72, eps=0.001, momentum=0.01, affine=True, track_running_stats=True)
          (2): ReLU(inplace=True)
        )
        (2): Conv2dNormActivation(
          (0): Conv2d(72, 24, kernel_size=(1, 1), stride=(1, 1), bias=False)
          (1): BatchNorm2d(24, eps=0.001, momentum=0.01, affine=True, track_running_stats=True)
        )
      )
    )
    (3): InvertedResidual(
      (block): Sequential(
        (0): Conv2dNormActivation(
          (0): Conv2d(24, 88, kernel_size=(1, 1), stride=(1, 1), bias=False)
          (1): BatchNorm2d(88, eps=0.001, momentum=0.01, affine=True, track_running_stats=True)
          (2): ReLU(inplace=True)
        )
        (1): Conv2dNormActivation(
          (0): Conv2d(88, 88, kernel_size=(3, 3), stride=(1, 1), padding=(1, 1), groups=88, bias=False)
          (1): BatchNorm2d(88, eps=0.001, momentum=0.01, affine=True, track_running_stats=True)
          (2): ReLU(inplace=True)
        )
        (2): Conv2dNormActivation(
          (0): Conv2d(88, 24, kernel_size=(1, 1), stride=(1, 1), bias=False)
          (1): BatchNorm2d(24, eps=0.001, momentum=0.01, affine=True, track_running_stats=True)
        )
      )
    )
    (4): InvertedResidual(
      (block): Sequential(
        (0): Conv2dNormActivation(
          (0): Conv2d(24, 96, kernel_size=(1, 1), stride=(1, 1), bias=False)
          (1): BatchNorm2d(96, eps=0.001, momentum=0.01, affine=True, track_running_stats=True)
          (2): Hardswish()
        )
        (1): Conv2dNormActivation(
          (0): Conv2d(96, 96, kernel_size=(5, 5), stride=(2, 2), padding=(2, 2), groups=96, bias=False)
          (1): BatchNorm2d(96, eps=0.001, momentum=0.01, affine=True, track_running_stats=True)
          (2): Hardswish()
        )
        (2): SqueezeExcitation(
          (avgpool): AdaptiveAvgPool2d(output_size=1)
          (fc1): Conv2d(96, 24, kernel_size=(1, 1), stride=(1, 1))
          (fc2): Conv2d(24, 96, kernel_size=(1, 1), stride=(1, 1))
          (activation): ReLU()
          (scale_activation): Hardsigmoid()
        )
        (3): Conv2dNormActivation(
          (0): Conv2d(96, 40, kernel_size=(1, 1), stride=(1, 1), bias=False)
          (1): BatchNorm2d(40, eps=0.001, momentum=0.01, affine=True, track_running_stats=True)
        )
      )
    )
    (5): InvertedResidual(
      (block): Sequential(
        (0): Conv2dNormActivation(
          (0): Conv2d(40, 240, kernel_size=(1, 1), stride=(1, 1), bias=False)
          (1): BatchNorm2d(240, eps=0.001, momentum=0.01, affine=True, track_running_stats=True)
          (2): Hardswish()
        )
        (1): Conv2dNormActivation(
          (0): Conv2d(240, 240, kernel_size=(5, 5), stride=(1, 1), padding=(2, 2), groups=240, bias=False)
          (1): BatchNorm2d(240, eps=0.001, momentum=0.01, affine=True, track_running_stats=True)
          (2): Hardswish()
        )
        (2): SqueezeExcitation(
          (avgpool): AdaptiveAvgPool2d(output_size=1)
          (fc1): Conv2d(240, 64, kernel_size=(1, 1), stride=(1, 1))
          (fc2): Conv2d(64, 240, kernel_size=(1, 1), stride=(1, 1))
          (activation): ReLU()
          (scale_activation): Hardsigmoid()
        )
        (3): Conv2dNormActivation(
          (0): Conv2d(240, 40, kernel_size=(1, 1), stride=(1, 1), bias=False)
          (1): BatchNorm2d(40, eps=0.001, momentum=0.01, affine=True, track_running_stats=True)
        )
      )
    )
    (6): InvertedResidual(
      (block): Sequential(
        (0): Conv2dNormActivation(
          (0): Conv2d(40, 240, kernel_size=(1, 1), stride=(1, 1), bias=False)
          (1): BatchNorm2d(240, eps=0.001, momentum=0.01, affine=True, track_running_stats=True)
          (2): Hardswish()
        )
        (1): Conv2dNormActivation(
          (0): Conv2d(240, 240, kernel_size=(5, 5), stride=(1, 1), padding=(2, 2), groups=240, bias=False)
          (1): BatchNorm2d(240, eps=0.001, momentum=0.01, affine=True, track_running_stats=True)
          (2): Hardswish()
        )
        (2): SqueezeExcitation(
          (avgpool): AdaptiveAvgPool2d(output_size=1)
          (fc1): Conv2d(240, 64, kernel_size=(1, 1), stride=(1, 1))
          (fc2): Conv2d(64, 240, kernel_size=(1, 1), stride=(1, 1))
          (activation): ReLU()
          (scale_activation): Hardsigmoid()
        )
        (3): Conv2dNormActivation(
          (0): Conv2d(240, 40, kernel_size=(1, 1), stride=(1, 1), bias=False)
          (1): BatchNorm2d(40, eps=0.001, momentum=0.01, affine=True, track_running_stats=True)
        )
      )
    )
    (7): InvertedResidual(
      (block): Sequential(
        (0): Conv2dNormActivation(
          (0): Conv2d(40, 120, kernel_size=(1, 1), stride=(1, 1), bias=False)
          (1): BatchNorm2d(120, eps=0.001, momentum=0.01, affine=True, track_running_stats=True)
          (2): Hardswish()
        )
        (1): Conv2dNormActivation(
          (0): Conv2d(120, 120, kernel_size=(5, 5), stride=(1, 1), padding=(2, 2), groups=120, bias=False)
          (1): BatchNorm2d(120, eps=0.001, momentum=0.01, affine=True, track_running_stats=True)
          (2): Hardswish()
        )
        (2): SqueezeExcitation(
          (avgpool): AdaptiveAvgPool2d(output_size=1)
          (fc1): Conv2d(120, 32, kernel_size=(1, 1), stride=(1, 1))
          (fc2): Conv2d(32, 120, kernel_size=(1, 1), stride=(1, 1))
          (activation): ReLU()
          (scale_activation): Hardsigmoid()
        )
        (3): Conv2dNormActivation(
          (0): Conv2d(120, 48, kernel_size=(1, 1), stride=(1, 1), bias=False)
          (1): BatchNorm2d(48, eps=0.001, momentum=0.01, affine=True, track_running_stats=True)
        )
      )
    )
    (8): InvertedResidual(
      (block): Sequential(
        (0): Conv2dNormActivation(
          (0): Conv2d(48, 144, kernel_size=(1, 1), stride=(1, 1), bias=False)
          (1): BatchNorm2d(144, eps=0.001, momentum=0.01, affine=True, track_running_stats=True)
          (2): Hardswish()
        )
        (1): Conv2dNormActivation(
          (0): Conv2d(144, 144, kernel_size=(5, 5), stride=(1, 1), padding=(2, 2), groups=144, bias=False)
          (1): BatchNorm2d(144, eps=0.001, momentum=0.01, affine=True, track_running_stats=True)
          (2): Hardswish()
        )
        (2): SqueezeExcitation(
          (avgpool): AdaptiveAvgPool2d(output_size=1)
          (fc1): Conv2d(144, 40, kernel_size=(1, 1), stride=(1, 1))
          (fc2): Conv2d(40, 144, kernel_size=(1, 1), stride=(1, 1))
          (activation): ReLU()
          (scale_activation): Hardsigmoid()
        )
        (3): Conv2dNormActivation(
          (0): Conv2d(144, 48, kernel_size=(1, 1), stride=(1, 1), bias=False)
          (1): BatchNorm2d(48, eps=0.001, momentum=0.01, affine=True, track_running_stats=True)
        )
      )
    )
    (9): InvertedResidual(
      (block): Sequential(
        (0): Conv2dNormActivation(
          (0): Conv2d(48, 288, kernel_size=(1, 1), stride=(1, 1), bias=False)
          (1): BatchNorm2d(288, eps=0.001, momentum=0.01, affine=True, track_running_stats=True)
          (2): Hardswish()
        )
        (1): Conv2dNormActivation(
          (0): Conv2d(288, 288, kernel_size=(5, 5), stride=(2, 2), padding=(2, 2), groups=288, bias=False)
          (1): BatchNorm2d(288, eps=0.001, momentum=0.01, affine=True, track_running_stats=True)
          (2): Hardswish()
        )
        (2): SqueezeExcitation(
          (avgpool): AdaptiveAvgPool2d(output_size=1)
          (fc1): Conv2d(288, 72, kernel_size=(1, 1), stride=(1, 1))
          (fc2): Conv2d(72, 288, kernel_size=(1, 1), stride=(1, 1))
          (activation): ReLU()
          (scale_activation): Hardsigmoid()
        )
        (3): Conv2dNormActivation(
          (0): Conv2d(288, 96, kernel_size=(1, 1), stride=(1, 1), bias=False)
          (1): BatchNorm2d(96, eps=0.001, momentum=0.01, affine=True, track_running_stats=True)
        )
      )
    )
    (10): InvertedResidual(
      (block): Sequential(
        (0): Conv2dNormActivation(
          (0): Conv2d(96, 576, kernel_size=(1, 1), stride=(1, 1), bias=False)
          (1): BatchNorm2d(576, eps=0.001, momentum=0.01, affine=True, track_running_stats=True)
          (2): Hardswish()
        )
        (1): Conv2dNormActivation(
          (0): Conv2d(576, 576, kernel_size=(5, 5), stride=(1, 1), padding=(2, 2), groups=576, bias=False)
          (1): BatchNorm2d(576, eps=0.001, momentum=0.01, affine=True, track_running_stats=True)
          (2): Hardswish()
        )
        (2): SqueezeExcitation(
          (avgpool): AdaptiveAvgPool2d(output_size=1)
          (fc1): Conv2d(576, 144, kernel_size=(1, 1), stride=(1, 1))
          (fc2): Conv2d(144, 576, kernel_size=(1, 1), stride=(1, 1))
          (activation): ReLU()
          (scale_activation): Hardsigmoid()
        )
        (3): Conv2dNormActivation(
          (0): Conv2d(576, 96, kernel_size=(1, 1), stride=(1, 1), bias=False)
          (1): BatchNorm2d(96, eps=0.001, momentum=0.01, affine=True, track_running_stats=True)
        )
      )
    )
    (11): InvertedResidual(
      (block): Sequential(
        (0): Conv2dNormActivation(
          (0): Conv2d(96, 576, kernel_size=(1, 1), stride=(1, 1), bias=False)
          (1): BatchNorm2d(576, eps=0.001, momentum=0.01, affine=True, track_running_stats=True)
          (2): Hardswish()
        )
        (1): Conv2dNormActivation(
          (0): Conv2d(576, 576, kernel_size=(5, 5), stride=(1, 1), padding=(2, 2), groups=576, bias=False)
          (1): BatchNorm2d(576, eps=0.001, momentum=0.01, affine=True, track_running_stats=True)
          (2): Hardswish()
        )
        (2): SqueezeExcitation(
          (avgpool): AdaptiveAvgPool2d(output_size=1)
          (fc1): Conv2d(576, 144, kernel_size=(1, 1), stride=(1, 1))
          (fc2): Conv2d(144, 576, kernel_size=(1, 1), stride=(1, 1))
          (activation): ReLU()
          (scale_activation): Hardsigmoid()
        )
        (3): Conv2dNormActivation(
          (0): Conv2d(576, 96, kernel_size=(1, 1), stride=(1, 1), bias=False)
          (1): BatchNorm2d(96, eps=0.001, momentum=0.01, affine=True, track_running_stats=True)
        )
      )
    )
    (12): Conv2dNormActivation(
      (0): Conv2d(96, 576, kernel_size=(1, 1), stride=(1, 1), bias=False)
      (1): BatchNorm2d(576, eps=0.001, momentum=0.01, affine=True, track_running_stats=True)
      (2): Hardswish()
    )
  )
  (avgpool): AdaptiveAvgPool2d(output_size=1)
  (classifier): Sequential(
    (0): Linear(in_features=576, out_features=512, bias=True)
    (1): Hardswish()
    (2): Dropout(p=0.2, inplace=True)
    (3): Linear(in_features=512, out_features=15, bias=True)
  )
)
2025-03-02 21:56:26,528 - INFO - Using class weights: [0.5015516  0.7979687  0.24874336 0.7979687  0.5683538  0.7979687
 0.8382024  0.47611496 0.4505752  2.1393263  0.8003698  0.3751616
 0.4180035  0.5398976  5.249794  ]
2025-03-02 21:56:26,528 - INFO - Training only 4 parameters (classifier)
2025-03-02 21:56:26,528 - INFO - Starting training for 30 epochs
…
